…
________________________________________________________________________________________________________________________
Layer (type)                           Output Shape               Param #       Connected to                            
========================================================================================================================
input (InputLayer)                     [(None, 640, 640, 1)]      0                                                     
________________________________________________________________________________________________________________________
conv2d (Conv2D)                        (None, 640, 640, 32)       320           input[0][0]                             
________________________________________________________________________________________________________________________
leaky_re_lu (LeakyReLU)                (None, 640, 640, 32)       0             conv2d[0][0]                            
________________________________________________________________________________________________________________________
dropout (Dropout)                      (None, 640, 640, 32)       0             leaky_re_lu[0][0]                       
________________________________________________________________________________________________________________________
conv2d_1 (Conv2D)                      (None, 640, 640, 32)       9248          dropout[0][0]                           
________________________________________________________________________________________________________________________
leaky_re_lu_1 (LeakyReLU)              (None, 640, 640, 32)       0             conv2d_1[0][0]                          
________________________________________________________________________________________________________________________
dropout_1 (Dropout)                    (None, 640, 640, 32)       0             leaky_re_lu_1[0][0]                     
________________________________________________________________________________________________________________________
conv2d_2 (Conv2D)                      (None, 320, 320, 32)       9248          dropout_1[0][0]                         
________________________________________________________________________________________________________________________
leaky_re_lu_2 (LeakyReLU)              (None, 320, 320, 32)       0             conv2d_2[0][0]                          
________________________________________________________________________________________________________________________
dropout_2 (Dropout)                    (None, 320, 320, 32)       0             leaky_re_lu_2[0][0]                     
________________________________________________________________________________________________________________________
conv2d_3 (Conv2D)                      (None, 320, 320, 64)       18496         dropout_2[0][0]                         
________________________________________________________________________________________________________________________
leaky_re_lu_3 (LeakyReLU)              (None, 320, 320, 64)       0             conv2d_3[0][0]                          
________________________________________________________________________________________________________________________
dropout_3 (Dropout)                    (None, 320, 320, 64)       0             leaky_re_lu_3[0][0]                     
________________________________________________________________________________________________________________________
conv2d_4 (Conv2D)                      (None, 320, 320, 64)       36928         dropout_3[0][0]                         
________________________________________________________________________________________________________________________
leaky_re_lu_4 (LeakyReLU)              (None, 320, 320, 64)       0             conv2d_4[0][0]                          
________________________________________________________________________________________________________________________
dropout_4 (Dropout)                    (None, 320, 320, 64)       0             leaky_re_lu_4[0][0]                     
________________________________________________________________________________________________________________________
conv2d_5 (Conv2D)                      (None, 160, 160, 64)       36928         dropout_4[0][0]                         
________________________________________________________________________________________________________________________
leaky_re_lu_5 (LeakyReLU)              (None, 160, 160, 64)       0             conv2d_5[0][0]                          
________________________________________________________________________________________________________________________
dropout_5 (Dropout)                    (None, 160, 160, 64)       0             leaky_re_lu_5[0][0]                     
________________________________________________________________________________________________________________________
conv2d_6 (Conv2D)                      (None, 160, 160, 128)      73856         dropout_5[0][0]                         
________________________________________________________________________________________________________________________
leaky_re_lu_6 (LeakyReLU)              (None, 160, 160, 128)      0             conv2d_6[0][0]                          
________________________________________________________________________________________________________________________
dropout_6 (Dropout)                    (None, 160, 160, 128)      0             leaky_re_lu_6[0][0]                     
________________________________________________________________________________________________________________________
conv2d_7 (Conv2D)                      (None, 160, 160, 128)      147584        dropout_6[0][0]                         
________________________________________________________________________________________________________________________
leaky_re_lu_7 (LeakyReLU)              (None, 160, 160, 128)      0             conv2d_7[0][0]                          
________________________________________________________________________________________________________________________
dropout_7 (Dropout)                    (None, 160, 160, 128)      0             leaky_re_lu_7[0][0]                     
________________________________________________________________________________________________________________________
conv2d_8 (Conv2D)                      (None, 80, 80, 128)        147584        dropout_7[0][0]                         
________________________________________________________________________________________________________________________
leaky_re_lu_8 (LeakyReLU)              (None, 80, 80, 128)        0             conv2d_8[0][0]                          
________________________________________________________________________________________________________________________
dropout_8 (Dropout)                    (None, 80, 80, 128)        0             leaky_re_lu_8[0][0]                     
________________________________________________________________________________________________________________________
conv2d_9 (Conv2D)                      (None, 80, 80, 256)        295168        dropout_8[0][0]                         
________________________________________________________________________________________________________________________
leaky_re_lu_9 (LeakyReLU)              (None, 80, 80, 256)        0             conv2d_9[0][0]                          
________________________________________________________________________________________________________________________
dropout_9 (Dropout)                    (None, 80, 80, 256)        0             leaky_re_lu_9[0][0]                     
________________________________________________________________________________________________________________________
conv2d_10 (Conv2D)                     (None, 80, 80, 256)        590080        dropout_9[0][0]                         
________________________________________________________________________________________________________________________
leaky_re_lu_10 (LeakyReLU)             (None, 80, 80, 256)        0             conv2d_10[0][0]                         
________________________________________________________________________________________________________________________
dropout_10 (Dropout)                   (None, 80, 80, 256)        0             leaky_re_lu_10[0][0]                    
________________________________________________________________________________________________________________________
conv2d_11 (Conv2D)                     (None, 40, 40, 256)        590080        dropout_10[0][0]                        
________________________________________________________________________________________________________________________
leaky_re_lu_11 (LeakyReLU)             (None, 40, 40, 256)        0             conv2d_11[0][0]                         
________________________________________________________________________________________________________________________
dropout_11 (Dropout)                   (None, 40, 40, 256)        0             leaky_re_lu_11[0][0]                    
________________________________________________________________________________________________________________________
conv2d_12 (Conv2D)                     (None, 40, 40, 256)        590080        dropout_11[0][0]                        
________________________________________________________________________________________________________________________
leaky_re_lu_12 (LeakyReLU)             (None, 40, 40, 256)        0             conv2d_12[0][0]                         
________________________________________________________________________________________________________________________
dropout_12 (Dropout)                   (None, 40, 40, 256)        0             leaky_re_lu_12[0][0]                    
________________________________________________________________________________________________________________________
conv2d_13 (Conv2D)                     (None, 40, 40, 256)        590080        dropout_12[0][0]                        
________________________________________________________________________________________________________________________
leaky_re_lu_13 (LeakyReLU)             (None, 40, 40, 256)        0             conv2d_13[0][0]                         
________________________________________________________________________________________________________________________
dropout_13 (Dropout)                   (None, 40, 40, 256)        0             leaky_re_lu_13[0][0]                    
________________________________________________________________________________________________________________________
conv2d_transpose (Conv2DTranspose)     (None, 80, 80, 256)        590080        dropout_13[0][0]                        
________________________________________________________________________________________________________________________
leaky_re_lu_14 (LeakyReLU)             (None, 80, 80, 256)        0             conv2d_transpose[0][0]                  
________________________________________________________________________________________________________________________
dropout_14 (Dropout)                   (None, 80, 80, 256)        0             leaky_re_lu_14[0][0]                    
________________________________________________________________________________________________________________________
concatenate (Concatenate)              (None, 80, 80, 512)        0             dropout_14[0][0]                        
                                                                                dropout_10[0][0]                        
________________________________________________________________________________________________________________________
conv2d_14 (Conv2D)                     (None, 80, 80, 256)        1179904       concatenate[0][0]                       
________________________________________________________________________________________________________________________
leaky_re_lu_15 (LeakyReLU)             (None, 80, 80, 256)        0             conv2d_14[0][0]                         
________________________________________________________________________________________________________________________
dropout_15 (Dropout)                   (None, 80, 80, 256)        0             leaky_re_lu_15[0][0]                    
________________________________________________________________________________________________________________________
conv2d_15 (Conv2D)                     (None, 80, 80, 256)        590080        dropout_15[0][0]                        
________________________________________________________________________________________________________________________
leaky_re_lu_16 (LeakyReLU)             (None, 80, 80, 256)        0             conv2d_15[0][0]                         
________________________________________________________________________________________________________________________
dropout_16 (Dropout)                   (None, 80, 80, 256)        0             leaky_re_lu_16[0][0]                    
________________________________________________________________________________________________________________________
conv2d_transpose_1 (Conv2DTranspose)   (None, 160, 160, 128)      295040        dropout_16[0][0]                        
________________________________________________________________________________________________________________________
leaky_re_lu_17 (LeakyReLU)             (None, 160, 160, 128)      0             conv2d_transpose_1[0][0]                
________________________________________________________________________________________________________________________
dropout_17 (Dropout)                   (None, 160, 160, 128)      0             leaky_re_lu_17[0][0]                    
________________________________________________________________________________________________________________________
concatenate_1 (Concatenate)            (None, 160, 160, 256)      0             dropout_17[0][0]                        
                                                                                dropout_7[0][0]                         
________________________________________________________________________________________________________________________
conv2d_16 (Conv2D)                     (None, 160, 160, 128)      295040        concatenate_1[0][0]                     
________________________________________________________________________________________________________________________
leaky_re_lu_18 (LeakyReLU)             (None, 160, 160, 128)      0             conv2d_16[0][0]                         
________________________________________________________________________________________________________________________
dropout_18 (Dropout)                   (None, 160, 160, 128)      0             leaky_re_lu_18[0][0]                    
________________________________________________________________________________________________________________________
conv2d_17 (Conv2D)                     (None, 160, 160, 128)      147584        dropout_18[0][0]                        
________________________________________________________________________________________________________________________
leaky_re_lu_19 (LeakyReLU)             (None, 160, 160, 128)      0             conv2d_17[0][0]                         
________________________________________________________________________________________________________________________
dropout_19 (Dropout)                   (None, 160, 160, 128)      0             leaky_re_lu_19[0][0]                    
________________________________________________________________________________________________________________________
conv2d_transpose_2 (Conv2DTranspose)   (None, 320, 320, 64)       73792         dropout_19[0][0]                        
________________________________________________________________________________________________________________________
leaky_re_lu_20 (LeakyReLU)             (None, 320, 320, 64)       0             conv2d_transpose_2[0][0]                
2022-04-23 04:15:51.388777: I tensorflow/core/profiler/lib/profiler_session.cc:136] Profiler session initializing.
2022-04-23 04:15:51.388845: I tensorflow/core/profiler/lib/profiler_session.cc:155] Profiler session started.
2022-04-23 04:15:51.388901: I tensorflow/core/profiler/internal/gpu/cupti_tracer.cc:1365] Profiler found 1 GPUs
2022-04-23 04:15:51.389645: I tensorflow/stream_executor/platform/default/dso_loader.cc:49] Successfully opened dynamic library libcupti.so.10.1
2022-04-23 04:15:51.490041: E tensorflow/core/profiler/internal/gpu/cupti_tracer.cc:1415] function cupti_interface_->Subscribe( &subscriber_, (CUpti_CallbackFunc)ApiCallback, this)failed with error CUPTI_ERROR_INSUFFICIENT_PRIVILEGES
2022-04-23 04:15:51.490111: I tensorflow/core/profiler/lib/profiler_session.cc:172] Profiler session tear down.
________________________________________________________________________________________________________________________
dropout_20 (Dropout)                   (None, 320, 320, 64)       0             leaky_re_lu_20[0][0]                    
________________________________________________________________________________________________________________________
concatenate_2 (Concatenate)            (None, 320, 320, 128)      0             dropout_20[0][0]                        
                                                                                dropout_4[0][0]                         
________________________________________________________________________________________________________________________
conv2d_18 (Conv2D)                     (None, 320, 320, 64)       73792         concatenate_2[0][0]                     
________________________________________________________________________________________________________________________
leaky_re_lu_21 (LeakyReLU)             (None, 320, 320, 64)       0             conv2d_18[0][0]                         
________________________________________________________________________________________________________________________
dropout_21 (Dropout)                   (None, 320, 320, 64)       0             leaky_re_lu_21[0][0]                    
________________________________________________________________________________________________________________________
conv2d_19 (Conv2D)                     (None, 320, 320, 64)       36928         dropout_21[0][0]                        
________________________________________________________________________________________________________________________
leaky_re_lu_22 (LeakyReLU)             (None, 320, 320, 64)       0             conv2d_19[0][0]                         
________________________________________________________________________________________________________________________
dropout_22 (Dropout)                   (None, 320, 320, 64)       0             leaky_re_lu_22[0][0]                    
________________________________________________________________________________________________________________________
conv2d_transpose_3 (Conv2DTranspose)   (None, 640, 640, 32)       18464         dropout_22[0][0]                        
________________________________________________________________________________________________________________________
leaky_re_lu_23 (LeakyReLU)             (None, 640, 640, 32)       0             conv2d_transpose_3[0][0]                
________________________________________________________________________________________________________________________
dropout_23 (Dropout)                   (None, 640, 640, 32)       0             leaky_re_lu_23[0][0]                    
________________________________________________________________________________________________________________________
concatenate_3 (Concatenate)            (None, 640, 640, 64)       0             dropout_23[0][0]                        
                                                                                dropout_1[0][0]                         
________________________________________________________________________________________________________________________
conv2d_20 (Conv2D)                     (None, 640, 640, 32)       18464         concatenate_3[0][0]                     
________________________________________________________________________________________________________________________
leaky_re_lu_24 (LeakyReLU)             (None, 640, 640, 32)       0             conv2d_20[0][0]                         
________________________________________________________________________________________________________________________
dropout_24 (Dropout)                   (None, 640, 640, 32)       0             leaky_re_lu_24[0][0]                    
________________________________________________________________________________________________________________________
conv2d_21 (Conv2D)                     (None, 640, 640, 32)       9248          dropout_24[0][0]                        
________________________________________________________________________________________________________________________
leaky_re_lu_25 (LeakyReLU)             (None, 640, 640, 32)       0             conv2d_21[0][0]                         
________________________________________________________________________________________________________________________
dropout_25 (Dropout)                   (None, 640, 640, 32)       0             leaky_re_lu_25[0][0]                    
________________________________________________________________________________________________________________________
conv2d_22 (Conv2D)                     (None, 640, 640, 1)        33            dropout_25[0][0]                        
________________________________________________________________________________________________________________________
tf.__operators__.add (TFOpLambda)      (None, 640, 640, 1)        0             input[0][0]                             
                                                                                conv2d_22[0][0]                         
========================================================================================================================
Total params: 6,464,129
Trainable params: 6,464,129
Non-trainable params: 0
________________________________________________________________________________________________________________________
…
